ResNet/ExpNet_fc_weights.npz (npz, 238096 bytes, 2 tensors)

ini_weights_expr (column-major) f4 [2048, 29]
00000000: 700e 17b5 a2e1 4f36 9c1f 11bc b56c 0635
00000010: 3805 f7ba e8fd 42b8 cd9a 0ebc 7f5e 9cb8
00000020: ec17 6933 27e8 d438 ce73 3eba 4958 70bb
00000030: 519f 313b 88a2 1ab7 9265 18bb 3433 32bd
00000040: 942e 1a37 1af3 c8b5 f1c0 b8ba 5767 93ba
00000050: 8796 e63b f19f 1abc f87e ca3b 6d58 b0b6
00000060: 35c1 023c 2597 b22f b35f cdba acba 00b8
00000070: b379 093a 1ef3 1fb5 cd9a 65bd 2cb4 97ba
00000080: 8ebb e2bc 86c3 0e3a 0d90 01b9 b978 c0b7
00000090: 815c 9bb8 5eb6 c4ba 86d1 c7b8 8b89 b13d
000000a0: c4a5 0dba dd9b c1ba 3ae9 7eb9 b43b b0b8
000000b0: b67d 60bb a244 30ba 0fba d9b6 60ab 66b7
000000c0: c9a8 81b8 6761 c4ba 78e6 a0b8 955c 28b8
000000d0: e64e 69b5 cb3b 09bd 5ca4 ca27 3ffd e8bb
000000e0: 2599 2f38 beb6 aeb9 442e 6fb7 b981 4434
000000f0: 9a28 c0bc 4382 31ba afc1 9439 4a68 14b8
00000100: 7566 963b 519c 9434 ccdf 26b5 5434 d03d
00000110: bf39 fdb9 d141 4db9 09df 17bd 1330 61b6
00000120: 8679 a6b9 1388 57ba ef98 13b5 6c79 deb5
00000130: a75e abb3 00d0 683c 1b87 5cb6 8885 16b7
00000140: ad8c 71bb 91e1 a1b9 9769 3fb9 15bd f734
00000150: 1ff9 d93b b20a f0bb f6e9 46b7 256a 49ba
00000160: cb5d 8837 2ed0 a339 4278 4ab9 8d93 3034
00000170: 6ec2 92ba fb4d 81bb a614 a2bd 0831 c5b9
00000180: bfd2 0abd 255c 0f35 d791 3eb9 8837 ecb9
00000190: 9566 d2b6 34d1 84ba f6ef 1eb8 5639 3f35
000001a0: 5ae5 5d37 cdcb 2abc 602e a3ba 14ae 0dba
000001b0: a973 aebd 19af 4134 c9a0 0b3c c94c 42b9
000001c0: 2674 bcbd 7f25 4cbb bb0a 6eb8 85b1 90b4
000001d0: 10e5 89ba 97e5 e2b8 e30f 2eba 1f62 8db9
000001e0: a25b f839 61ac a0ba fef5 6436 af5e 43bc
000001f0: ff76 58ba 1f74 e13d ed1b b4b8 bd81 5fba
00000200: de3c aabc e7e7 5238 484f 813a a10a 40b7
00000210: 5ff1 34bb fc32 b0b5 0a7a d4b9 09b6 f6b7
00000220: 0242 d8ba 17d3 6cb7 0b77 cfba f625 e63b
00000230: 8c4a 0036 39d5 5c36 89b8 8ab7 c592 8cba
00000240: 6c93 643a 441c 0d3c 9ac5 9637 4e6b 74ba
00000250: 7546 40b8 5a4f 98be 6e00 0c36 9eb3 443c
00000260: 19b3 923b 645e e0ba f765 853d bf03 a0b8
00000270: 582e d1b6 ce8d 3f30 8424 a0ba cd80 93bd
00000280: ceef 4436 807d 14ba 99f2 a2bc 00a3 10b7
00000290: bf10 7cb9 43e3 1ebd 4516 d3b3 db5a 79ba
000002a0: 7452 293e 8e6f 4638 fc57 bf3c 7db3 a7ba
000002b0: 4fed f036 04fd cebb f6d1 6db8 abbe b5ba
000002c0: ea27 be36 f661 00ba 9e26 b9ba 7a88 843a
000002d0: 8b80 40bc 6c4c f6ba cb38 81ba 833f aeb1
000002e0: ab07 c2ba d483 6238 1625 9b3c 4ad5 3038
000002f0: f8aa d6ba 6f11 87ba 0c99 05ba 6d72 3239
00000300: 340f aebd d555 5c36 93ca c9b7 b95f 4d32
00000310: 3edc e63c d25e 0ab7 9322 c8bb 82fc c0ba
00000320: d1f7 f1b5 6893 d5b7 80f2 87ba 1459 c4bc
00000330: 0094 393c c0a4 0abd 9102 14ba dd17 8ea8
00000340: e9f3 c837 6c3d d737 a430 6d36 8d06 f2ba
00000350: 92f7 15bb 3687 0a35 d653 11ba da86 f637
00000360: 5687 02b8 070d 68ba 7dbd be3d 8e6a dcb9
00000370: 2c17 6eb9 45b7 f138 17c8 aab9 5525 f4b5
00000380: 4bb7 7d3e ef96 91bc fbcb 4ea7 26a9 b7b8
00000390: 64f9 983d 8cd0 feb5 7bf4 513d 75b2 baba
000003a0: 8df7 ebb8 b893 0abc 78ee 29b2 7be1 83ba
000003b0: b9ba 26bc d4f1 73ba 98b3 c33c cf4a 04b7
000003c0: eaf3 17ba 2f5e a4b9 7e4e e13b 2746 d2b3
000003d0: 924f 15b9 bb91 97bb cd04 09ba ae5f bab4
000003e0: a3e1 60b9 e894 cbb1 10d8 a2ba bee9 89b5
000003f0: 60c2 a237 a74c 7ab9 d052 74b9 de30 87b4
-5.627289e-07 3.097674e-06 -0.008857634 5.007708e-07 -0.001884616 -4.6489673e-05 -0.0087039 -7.456261e-05
5.4271297e-08 0.000101521895 -0.0007265181 -0.0036673716 0.0027103017 -9.216958e-06 -0.00232539 -0.043505862
9.18996e-06 -1.4971913e-06 -0.0014095587 -0.0011246008 0.007036987 -0.009437547 0.0061796866 -5.255503e-06
0.007980634 3.2485406e-10 -0.0015668779 -3.069143e-05 0.000524427 -5.95859e-07 -0.056055833 -0.0011574081
-0.027677324 0.00054460054 -0.00012356062 -2.29444e-05 -7.408206e-05 -0.0015007963 -9.528086e-05 0.08668812
-0.0005403424 -0.0014771182 -0.00024310211 -8.4034546e-05 -0.0034254617 -0.0006724094 -6.488764e-06 -1.374897e-05
-6.182638e-05 -0.0014982641 -7.672323e-05 -4.0140545e-05 -8.6914076e-07 -0.03350429 5.624446e-15 -0.0071102674
4.186588e-05 -0.0003332402 -1.4256282e-05 1.8301115e-07 -0.02345686 -0.00067714247 0.00028373065 -3.5383076e-05
0.0045898505 2.7680883e-07 -6.2165486e-07 0.10166231 -0.00048298945 -0.00019574842 -0.037077937 -3.3555596e-06
-0.0003175253 -0.0008221876 -5.4984315e-07 -1.6575627e-06 -7.980025e-08 0.014209747 -3.2861196e-06 -8.971787e-06
-0.003685753 -0.00030876373 -0.00018254515 4.614491e-07 0.006652012 -0.0073254937 -1.1856193e-05 -0.0007683358
1.625614e-05 0.0003124489 -0.0001930902 1.6444956e-07 -0.001119686 -0.0039460636 -0.079140946 -0.000376113
-0.03389239 5.340574e-07 -0.00018174142 -0.00045054802 -6.27043e-06 -0.0010133148 -3.7893617e-05 7.123648e-07
1.3226027e-05 -0.010424566 -0.0012449734 -0.0005404663 -0.08518154 1.8038226e-07 0.008522221 -0.00018529886
-0.09201841 -0.003115028 -5.6753615e-05 -2.6951253e-07 -0.0010520536 -0.00010819284 -0.00066399405 -0.00026966722
0.00047370518 -0.0012258404 3.4117834e-06 -0.01192443 -0.0008257478 0.110084765 -8.5882704e-05 -0.00085261074
-0.020780977 5.0283877e-05 0.0009865547 -1.14465665e-05 -0.0027609689 -1.312786e-06 -0.00040526717 -2.9410252e-05
-0.0016499164 -1.4115844e-05 -0.0015828324 0.0070235683 1.9116878e-06 3.2906667e-06 -1.6536813e-05 -0.0010724893
0.00087194773 0.008612696 1.7973409e-05 -0.0009323851 -4.5841985e-05 -0.2974804 2.0861876e-06 0.012005715
0.0044769165 -0.0017117974 0.06513589 -7.630092e-05 -6.2340805e-06 6.968691e-10 -0.0012217914 -0.07202301
2.934586e-06 -0.0005664453 -0.01989107 -8.62102e-06 -0.00024038831 -0.038790952 -9.829504e-08 -0.0009512135
0.1653536 4.7310772e-05 0.023357384 -0.001279458 7.1801837e-06 -0.006316783 -5.6700745e-05 -0.0013866028
5.667088e-06 -0.000489741 -0.0014125889 0.0010111474 -0.011749397 -0.0018791086 -0.0009858845 -5.071287e-09
-0.0014803311 5.4005373e-05 0.018938582 4.216031e-05 -0.0016377857 -0.0010304878 -0.0005096353 0.0001701803
-0.084989935 3.2832515e-06 -2.4055398e-05 1.1954335e-08 0.028181192 -8.247518e-06 -0.006107637 -0.0014723691
-1.8028023e-06 -2.546022e-05 -0.0010371953 -0.023968257 0.01132679 -0.033848524 -0.00056461344 -1.5775516e-14
2.3955437e-05 2.5658599e-05 3.5344065e-06 -0.0018465087 -0.002288316 5.1605764e-07 -0.00055438036 2.938828e-05
-3.1120457e-05 -0.0008852039 0.09313486 -0.0004204106 -0.00022706081 0.00011525912 -0.00032574005 -1.8190282e-06
0.24776952 -0.017772166 -2.869882e-15 -8.757626e-05 0.074694425 -1.898517e-06 0.051258545 -0.0014243858
-0.00011251783 -0.00845807 -9.891316e-09 -0.0010061705 -0.010176354 -0.00093057496 0.023889348 -7.885231e-06
-0.0005796539 -0.0003135069 0.006875812 -9.791648e-08 -0.0001423939 -0.0046255267 -0.00052268506 -3.4714816e-07
-0.00021446361 -5.9250063e-09 -0.0012424011 -1.0275323e-06 1.9402418e-05 -0.00023870413 -0.00023300503 -2.5181265e-07

ini_biases_expr f4 [29]
00000000: cc1f 5cbe 68af 153e dce9 ef3c a913 c73c
00000010: c3bf 3ebd 990b 05bd 4ee0 283e dc55 d63d
00000020: 992a 333d 8166 09be de8a c4bd 67f6 2d3d
00000030: f902 d6bb 210a b63c 4d1e 70bd 01e1 913c
00000040: f0d3 40bd 05b8 e23d d499 c53d abf6 333d
00000050: 9944 2c3d 02f1 90bd ed9d 01bd af68 a7bc
00000060: db82 48bd a8a1 1a3d 4a75 633b 4657 a23b
00000070: 275c 9a3c
-0.21496505 0.14617693 0.029286318 0.024301367 -0.046569597 -0.032481764 0.16491815 0.10465595
0.043741796 -0.13418008 -0.09596799 0.042471316 -0.006531116 0.022221627 -0.058622647 0.017807486
-0.04707712 0.11070255 0.09648481 0.043936413 0.042057607 -0.070772186 -0.03164475 -0.02043566
-0.04895292 0.037751824 0.003470736 0.0049542515 0.01884277
